…
[36m(WorkerDict pid=851211)[0m Skipping monkey patch for Qwen3_5ForCausalLM as use_fused_kernels is False or fused_kernels_backend is torch
[36m(WorkerDict pid=851211)[0m Qwen3_5ForCausalLM contains 752.39M parameters
[36m(WorkerDict pid=851211)[0m Before FSDP, memory allocated (GB): 0.00, memory reserved (GB): 0.00, device memory used/total (GB): 0.41/39.49
[36m(WorkerDict pid=851211)[0m ============================
[36m(WorkerDict pid=851211)[0m module:  Qwen3_5ForCausalLM(
[36m(WorkerDict pid=851211)[0m   (model): Qwen3_5TextModel(
[36m(WorkerDict pid=851211)[0m     (embed_tokens): Embedding(248320, 1024, padding_idx=248044)
[36m(WorkerDict pid=851211)[0m     (layers): ModuleList(
[36m(WorkerDict pid=851211)[0m       (0-2): 3 x Qwen3_5DecoderLayer(
[36m(WorkerDict pid=851211)[0m         (linear_attn): Qwen3_5GatedDeltaNet(
[36m(WorkerDict pid=851211)[0m           (act): SiLUActivation()
[36m(WorkerDict pid=851211)[0m           (conv1d): Conv1d(6144, 6144, kernel_size=(4,), stride=(1,), padding=(3,), groups=6144, bias=False)
[36m(WorkerDict pid=851211)[0m           (norm): Qwen3_5RMSNormGated()
[36m(WorkerDict pid=851211)[0m           (out_proj): Linear(in_features=2048, out_features=1024, bias=False)
[36m(WorkerDict pid=851211)[0m           (in_proj_qkv): Linear(in_features=1024, out_features=6144, bias=False)
[36m(WorkerDict pid=851211)[0m           (in_proj_z): Linear(in_features=1024, out_features=2048, bias=False)
[36m(WorkerDict pid=851211)[0m           (in_proj_b): Linear(in_features=1024, out_features=16, bias=False)
[36m(WorkerDict pid=851211)[0m           (in_proj_a): Linear(in_features=1024, out_features=16, bias=False)
[36m(WorkerDict pid=851211)[0m         )
[36m(WorkerDict pid=851211)[0m         (mlp): Qwen3_5MLP(
[36m(WorkerDict pid=851211)[0m           (gate_proj): Linear(in_features=1024, out_features=3584, bias=False)
[36m(WorkerDict pid=851211)[0m           (up_proj): Linear(in_features=1024, out_features=3584, bias=False)
[36m(WorkerDict pid=851211)[0m           (down_proj): Linear(in_features=3584, out_features=1024, bias=False)
[36m(WorkerDict pid=851211)[0m           (act_fn): SiLUActivation()
[36m(WorkerDict pid=851211)[0m         )
[36m(WorkerDict pid=851211)[0m         (input_layernorm): Qwen3_5RMSNorm((1024,), eps=1e-06)
[36m(WorkerDict pid=851211)[0m         (post_attention_layernorm): Qwen3_5RMSNorm((1024,), eps=1e-06)
[36m(WorkerDict pid=851211)[0m       )
[36m(WorkerDict pid=851211)[0m       (3): Qwen3_5DecoderLayer(
[36m(WorkerDict pid=851211)[0m         (self_attn): Qwen3_5Attention(
[36m(WorkerDict pid=851211)[0m           (q_proj): Linear(in_features=1024, out_features=4096, bias=False)
[36m(WorkerDict pid=851211)[0m           (k_proj): Linear(in_features=1024, out_features=512, bias=False)
[36m(WorkerDict pid=851211)[0m           (v_proj): Linear(in_features=1024, out_features=512, bias=False)
[36m(WorkerDict pid=851211)[0m           (o_proj): Linear(in_features=2048, out_features=1024, bias=False)
[36m(WorkerDict pid=851211)[0m           (q_norm): Qwen3_5RMSNorm((256,), eps=1e-06)
[36m(WorkerDict pid=851211)[0m           (k_norm): Qwen3_5RMSNorm((256,), eps=1e-06)
[36m(WorkerDict pid=851211)[0m         )
[36m(WorkerDict pid=851211)[0m         (mlp): Qwen3_5MLP(
[36m(WorkerDict pid=851211)[0m           (gate_proj): Linear(in_features=1024, out_features=3584, bias=False)
[36m(WorkerDict pid=851211)[0m           (up_proj): Linear(in_features=1024, out_features=3584, bias=False)
[36m(WorkerDict pid=851211)[0m           (down_proj): Linear(in_features=3584, out_features=1024, bias=False)
[36m(WorkerDict pid=851211)[0m           (act_fn): SiLUActivation()
[36m(WorkerDict pid=851211)[0m         )
[36m(WorkerDict pid=851211)[0m         (input_layernorm): Qwen3_5RMSNorm((1024,), eps=1e-06)
[36m(WorkerDict pid=851211)[0m         (post_attention_layernorm): Qwen3_5RMSNorm((1024,), eps=1e-06)
[36m(WorkerDict pid=851211)[0m       )
[36m(WorkerDict pid=851211)[0m       (4-6): 3 x Qwen3_5DecoderLayer(
[36m(WorkerDict pid=851211)[0m         (linear_attn): Qwen3_5GatedDeltaNet(
[36m(WorkerDict pid=851211)[0m           (act): SiLUActivation()
[36m(WorkerDict pid=851211)[0m           (conv1d): Conv1d(6144, 6144, kernel_size=(4,), stride=(1,), padding=(3,), groups=6144, bias=False)
[36m(WorkerDict pid=851211)[0m           (norm): Qwen3_5RMSNormGated()
[36m(WorkerDict pid=851211)[0m           (out_proj): Linear(in_features=2048, out_features=1024, bias=False)
[36m(WorkerDict pid=851211)[0m           (in_proj_qkv): Linear(in_features=1024, out_features=6144, bias=False)
[36m(WorkerDict pid=851211)[0m           (in_proj_z): Linear(in_features=1024, out_features=2048, bias=False)
[36m(WorkerDict pid=851211)[0m           (in_proj_b): Linear(in_features=1024, out_features=16, bias=False)
[36m(WorkerDict pid=851211)[0m           (in_proj_a): Linear(in_features=1024, out_features=16, bias=False)
[36m(WorkerDict pid=851211)[0m         )
[36m(WorkerDict pid=851211)[0m         (mlp): Qwen3_5MLP(
[36m(WorkerDict pid=851211)[0m           (gate_proj): Linear(in_features=1024, out_features=3584, bias=False)
[36m(WorkerDict pid=851211)[0m           (up_proj): Linear(in_features=1024, out_features=3584, bias=False)
[36m(WorkerDict pid=851211)[0m           (down_proj): Linear(in_features=3584, out_features=1024, bias=False)
[36m(WorkerDict pid=851211)[0m           (act_fn): SiLUActivation()
[36m(WorkerDict pid=851211)[0m         )
[36m(WorkerDict pid=851211)[0m         (input_layernorm): Qwen3_5RMSNorm((1024,), eps=1e-06)
[36m(WorkerDict pid=851211)[0m         (post_attention_layernorm): Qwen3_5RMSNorm((1024,), eps=1e-06)
[36m(WorkerDict pid=851211)[0m       )
[36m(WorkerDict pid=851211)[0m       (7): Qwen3_5DecoderLayer(
[36m(WorkerDict pid=851211)[0m         (self_attn): Qwen3_5Attention(
[36m(WorkerDict pid=851211)[0m           (q_proj): Linear(in_features=1024, out_features=4096, bias=False)
[36m(WorkerDict pid=851211)[0m           (k_proj): Linear(in_features=1024, out_features=512, bias=False)
[36m(WorkerDict pid=851211)[0m           (v_proj): Linear(in_features=1024, out_features=512, bias=False)
[36m(WorkerDict pid=851211)[0m           (o_proj): Linear(in_features=2048, out_features=1024, bias=False)
[36m(WorkerDict pid=851211)[0m           (q_norm): Qwen3_5RMSNorm((256,), eps=1e-06)
[36m(WorkerDict pid=851211)[0m           (k_norm): Qwen3_5RMSNorm((256,), eps=1e-06)
[36m(WorkerDict pid=851211)[0m         )
[36m(WorkerDict pid=851211)[0m         (mlp): Qwen3_5MLP(
[36m(WorkerDict pid=851211)[0m           (gate_proj): Linear(in_features=1024, out_features=3584, bias=False)
[36m(WorkerDict pid=851211)[0m           (up_proj): Linear(in_features=1024, out_features=3584, bias=False)
[36m(WorkerDict pid=851211)[0m           (down_proj): Linear(in_features=3584, out_features=1024, bias=False)
[36m(WorkerDict pid=851211)[0m           (act_fn): SiLUActivation()
[36m(WorkerDict pid=851211)[0m         )
[36m(WorkerDict pid=851211)[0m         (input_layernorm): Qwen3_5RMSNorm((1024,), eps=1e-06)
[36m(WorkerDict pid=851211)[0m         (post_attention_layernorm): Qwen3_5RMSNorm((1024,), eps=1e-06)
[36m(WorkerDict pid=851211)[0m       )
[36m(WorkerDict pid=851211)[0m       (8-10): 3 x Qwen3_5DecoderLayer(
[36m(WorkerDict pid=851211)[0m         (linear_attn): Qwen3_5GatedDeltaNet(
[36m(WorkerDict pid=851211)[0m           (act): SiLUActivation()
[36m(WorkerDict pid=851211)[0m           (conv1d): Conv1d(6144, 6144, kernel_size=(4,), stride=(1,), padding=(3,), groups=6144, bias=False)
[36m(WorkerDict pid=851211)[0m           (norm): Qwen3_5RMSNormGated()
[36m(WorkerDict pid=851211)[0m           (out_proj): Linear(in_features=2048, out_features=1024, bias=False)
[36m(WorkerDict pid=851211)[0m           (in_proj_qkv): Linear(in_features=1024, out_features=6144, bias=False)
[36m(WorkerDict pid=851211)[0m           (in_proj_z): Linear(in_features=1024, out_features=2048, bias=False)
[36m(WorkerDict pid=851211)[0m           (in_proj_b): Linear(in_features=1024, out_features=16, bias=False)
[36m(WorkerDict pid=851211)[0m           (in_proj_a): Linear(in_features=1024, out_features=16, bias=False)
[36m(WorkerDict pid=851211)[0m         )
[36m(WorkerDict pid=851211)[0m         (mlp): Qwen3_5MLP(
[36m(WorkerDict pid=851211)[0m           (gate_proj): Linear(in_features=1024, out_features=3584, bias=False)
[36m(WorkerDict pid=851211)[0m           (up_proj): Linear(in_features=1024, out_features=3584, bias=False)
[36m(WorkerDict pid=851211)[0m           (down_proj): Linear(in_features=3584, out_features=1024, bias=False)
[36m(WorkerDict pid=851211)[0m           (act_fn): SiLUActivation()
[36m(WorkerDict pid=851211)[0m         )
[36m(WorkerDict pid=851211)[0m         (input_layernorm): Qwen3_5RMSNorm((1024,), eps=1e-06)
[36m(WorkerDict pid=851211)[0m         (post_attention_layernorm): Qwen3_5RMSNorm((1024,), eps=1e-06)
[36m(WorkerDict pid=851211)[0m       )
[36m(WorkerDict pid=851211)[0m       (11): Qwen3_5DecoderLayer(
[36m(WorkerDict pid=851211)[0m         (self_attn): Qwen3_5Attention(
[36m(WorkerDict pid=851211)[0m           (q_proj): Linear(in_features=1024, out_features=4096, bias=False)
[36m(WorkerDict pid=851211)[0m           (k_proj): Linear(in_features=1024, out_features=512, bias=False)
[36m(WorkerDict pid=851211)[0m           (v_proj): Linear(in_features=1024, out_features=512, bias=False)
[36m(WorkerDict pid=851211)[0m           (o_proj): Linear(in_features=2048, out_features=1024, bias=False)
[36m(WorkerDict pid=851211)[0m           (q_norm): Qwen3_5RMSNorm((256,), eps=1e-06)
[36m(WorkerDict pid=851211)[0m           (k_norm): Qwen3_5RMSNorm((256,), eps=1e-06)
[36m(WorkerDict pid=851211)[0m         )
[36m(WorkerDict pid=851211)[0m         (mlp): Qwen3_5MLP(
[36m(WorkerDict pid=851211)[0m           (gate_proj): Linear(in_features=1024, out_features=3584, bias=False)
[36m(WorkerDict pid=851211)[0m           (up_proj): Linear(in_features=1024, out_features=3584, bias=False)
[36m(WorkerDict pid=851211)[0m           (down_proj): Linear(in_features=3584, out_features=1024, bias=False)
[36m(WorkerDict pid=851211)[0m           (act_fn): SiLUActivation()
[36m(WorkerDict pid=851211)[0m         )
[36m(WorkerDict pid=851211)[0m         (input_layernorm): Qwen3_5RMSNorm((1024,), eps=1e-06)
[36m(WorkerDict pid=851211)[0m         (post_attention_layernorm): Qwen3_5RMSNorm((1024,), eps=1e-06)
[36m(WorkerDict pid=851211)[0m       )
[36m(WorkerDict pid=851211)[0m       (12-14): 3 x Qwen3_5DecoderLayer(
[36m(WorkerDict pid=851211)[0m         (linear_attn): Qwen3_5GatedDeltaNet(
[36m(WorkerDict pid=851211)[0m           (act): SiLUActivation()
[36m(WorkerDict pid=851211)[0m           (conv1d): Conv1d(6144, 6144, kernel_size=(4,), stride=(1,), padding=(3,), groups=6144, bias=False)
[36m(WorkerDict pid=851211)[0m           (norm): Qwen3_5RMSNormGated()
[36m(WorkerDict pid=851211)[0m           (out_proj): Linear(in_features=2048, out_features=1024, bias=False)
[36m(WorkerDict pid=851211)[0m           (in_proj_qkv): Linear(in_features=1024, out_features=6144, bias=False)
[36m(WorkerDict pid=851211)[0m           (in_proj_z): Linear(in_features=1024, out_features=2048, bias=False)
[36m(WorkerDict pid=851211)[0m           (in_proj_b): Linear(in_features=1024, out_features=16, bias=False)
[36m(WorkerDict pid=851211)[0m           (in_proj_a): Linear(in_features=1024, out_features=16, bias=False)
[36m(WorkerDict pid=851211)[0m         )
[36m(WorkerDict pid=851211)[0m         (mlp): Qwen3_5MLP(
[36m(WorkerDict pid=851211)[0m           (gate_proj): Linear(in_features=1024, out_features=3584, bias=False)
[36m(WorkerDict pid=851211)[0m           (up_proj): Linear(in_features=1024, out_features=3584, bias=False)
[36m(WorkerDict pid=851211)[0m           (down_proj): Linear(in_features=3584, out_features=1024, bias=False)
[36m(WorkerDict pid=851211)[0m           (act_fn): SiLUActivation()
[36m(WorkerDict pid=851211)[0m         )
[36m(WorkerDict pid=851211)[0m         (input_layernorm): Qwen3_5RMSNorm((1024,), eps=1e-06)
[36m(WorkerDict pid=851211)[0m         (post_attention_layernorm): Qwen3_5RMSNorm((1024,), eps=1e-06)
[36m(WorkerDict pid=851211)[0m       )
[36m(WorkerDict pid=851211)[0m       (15): Qwen3_5DecoderLayer(
[36m(WorkerDict pid=851211)[0m         (self_attn): Qwen3_5Attention(
[36m(WorkerDict pid=851211)[0m           (q_proj): Linear(in_features=1024, out_features=4096, bias=False)
[36m(WorkerDict pid=851211)[0m           (k_proj): Linear(in_features=1024, out_features=512, bias=False)
[36m(WorkerDict pid=851211)[0m           (v_proj): Linear(in_features=1024, out_features=512, bias=False)
[36m(WorkerDict pid=851211)[0m           (o_proj): Linear(in_features=2048, out_features=1024, bias=False)
[36m(WorkerDict pid=851211)[0m           (q_norm): Qwen3_5RMSNorm((256,), eps=1e-06)
[36m(WorkerDict pid=851211)[0m           (k_norm): Qwen3_5RMSNorm((256,), eps=1e-06)
[36m(WorkerDict pid=851211)[0m         )
[36m(WorkerDict pid=851211)[0m         (mlp): Qwen3_5MLP(
[36m(WorkerDict pid=851211)[0m           (gate_proj): Linear(in_features=1024, out_features=3584, bias=False)
[36m(WorkerDict pid=851211)[0m           (up_proj): Linear(in_features=1024, out_features=3584, bias=False)
[36m(WorkerDict pid=851211)[0m           (down_proj): Linear(in_features=3584, out_features=1024, bias=False)
[36m(WorkerDict pid=851211)[0m           (act_fn): SiLUActivation()
[36m(WorkerDict pid=851211)[0m         )
[36m(WorkerDict pid=851211)[0m         (input_layernorm): Qwen3_5RMSNorm((1024,), eps=1e-06)
[36m(WorkerDict pid=851211)[0m         (post_attention_layernorm): Qwen3_5RMSNorm((1024,), eps=1e-06)
[36m(WorkerDict pid=851211)[0m       )
[36m(WorkerDict pid=851211)[0m       (16-18): 3 x Qwen3_5DecoderLayer(
[36m(WorkerDict pid=851211)[0m         (linear_attn): Qwen3_5GatedDeltaNet(
[36m(WorkerDict pid=851211)[0m           (act): SiLUActivation()
[36m(WorkerDict pid=851211)[0m           (conv1d): Conv1d(6144, 6144, kernel_size=(4,), stride=(1,), padding=(3,), groups=6144, bias=False)
[36m(WorkerDict pid=851211)[0m           (norm): Qwen3_5RMSNormGated()
[36m(WorkerDict pid=851211)[0m           (out_proj): Linear(in_features=2048, out_features=1024, bias=False)
[36m(WorkerDict pid=851211)[0m           (in_proj_qkv): Linear(in_features=1024, out_features=6144, bias=False)
[36m(WorkerDict pid=851211)[0m           (in_proj_z): Linear(in_features=1024, out_features=2048, bias=False)
[36m(WorkerDict pid=851211)[0m           (in_proj_b): Linear(in_features=1024, out_features=16, bias=False)
[36m(WorkerDict pid=851211)[0m           (in_proj_a): Linear(in_features=1024, out_features=16, bias=False)
[36m(WorkerDict pid=851211)[0m         )
[36m(WorkerDict pid=851211)[0m         (mlp): Qwen3_5MLP(
[36m(WorkerDict pid=851211)[0m           (gate_proj): Linear(in_features=1024, out_features=3584, bias=False)
[36m(WorkerDict pid=851211)[0m           (up_proj): Linear(in_features=1024, out_features=3584, bias=False)
[36m(WorkerDict pid=851211)[0m           (down_proj): Linear(in_features=3584, out_features=1024, bias=False)
[36m(WorkerDict pid=851211)[0m           (act_fn): SiLUActivation()
[36m(WorkerDict pid=851211)[0m         )
[36m(WorkerDict pid=851211)[0m         (input_layernorm): Qwen3_5RMSNorm((1024,), eps=1e-06)
[36m(WorkerDict pid=851211)[0m         (post_attention_layernorm): Qwen3_5RMSNorm((1024,), eps=1e-06)
[36m(WorkerDict pid=851211)[0m       )
[36m(WorkerDict pid=851211)[0m       (19): Qwen3_5DecoderLayer(
[36m(WorkerDict pid=851211)[0m         (self_attn): Qwen3_5Attention(
[36m(WorkerDict pid=851211)[0m           (q_proj): Linear(in_features=1024, out_features=4096, bias=False)
[36m(WorkerDict pid=851211)[0m           (k_proj): Linear(in_features=1024, out_features=512, bias=False)
[36m(WorkerDict pid=851211)[0m           (v_proj): Linear(in_features=1024, out_features=512, bias=False)
[36m(WorkerDict pid=851211)[0m           (o_proj): Linear(in_features=2048, out_features=1024, bias=False)
[36m(WorkerDict pid=851211)[0m           (q_norm): Qwen3_5RMSNorm((256,), eps=1e-06)
[36m(WorkerDict pid=851211)[0m           (k_norm): Qwen3_5RMSNorm((256,), eps=1e-06)
[36m(WorkerDict pid=851211)[0m         )
[36m(WorkerDict pid=851211)[0m         (mlp): Qwen3_5MLP(
[36m(WorkerDict pid=851211)[0m           (gate_proj): Linear(in_features=1024, out_features=3584, bias=False)
[36m(WorkerDict pid=851211)[0m           (up_proj): Linear(in_features=1024, out_features=3584, bias=False)
[36m(WorkerDict pid=851211)[0m           (down_proj): Linear(in_features=3584, out_features=1024, bias=False)
[36m(WorkerDict pid=851211)[0m           (act_fn): SiLUActivation()
[36m(WorkerDict pid=851211)[0m         )
[36m(WorkerDict pid=851211)[0m         (input_layernorm): Qwen3_5RMSNorm((1024,), eps=1e-06)
[36m(WorkerDict pid=851211)[0m         (post_attention_layernorm): Qwen3_5RMSNorm((1024,), eps=1e-06)
[36m(WorkerDict pid=851211)[0m       )
[36m(WorkerDict pid=851211)[0m       (20-22): 3 x Qwen3_5DecoderLayer(
[36m(WorkerDict pid=851211)[0m         (linear_attn): Qwen3_5GatedDeltaNet(
[36m(WorkerDict pid=851211)[0m           (act): SiLUActivation()
[36m(WorkerDict pid=851211)[0m           (conv1d): Conv1d(6144, 6144, kernel_size=(4,), stride=(1,), padding=(3,), groups=6144, bias=False)
[36m(WorkerDict pid=851211)[0m           (norm): Qwen3_5RMSNormGated()
[36m(WorkerDict pid=851211)[0m           (out_proj): Linear(in_features=2048, out_features=1024, bias=False)
[36m(WorkerDict pid=851211)[0m           (in_proj_qkv): Linear(in_features=1024, out_features=6144, bias=False)
[36m(WorkerDict pid=851211)[0m           (in_proj_z): Linear(in_features=1024, out_features=2048, bias=False)
[36m(WorkerDict pid=851211)[0m           (in_proj_b): Linear(in_features=1024, out_features=16, bias=False)
[36m(WorkerDict pid=851211)[0m           (in_proj_a): Linear(in_features=1024, out_features=16, bias=False)
[36m(WorkerDict pid=851211)[0m         )
[36m(WorkerDict pid=851211)[0m         (mlp): Qwen3_5MLP(
[36m(WorkerDict pid=851211)[0m           (gate_proj): Linear(in_features=1024, out_features=3584, bias=False)
[36m(WorkerDict pid=851211)[0m           (up_proj): Linear(in_features=1024, out_features=3584, bias=False)
[36m(WorkerDict pid=851211)[0m           (down_proj): Linear(in_features=3584, out_features=1024, bias=False)
[36m(WorkerDict pid=851211)[0m           (act_fn): SiLUActivation()
[36m(WorkerDict pid=851211)[0m         )
[36m(WorkerDict pid=851211)[0m         (input_layernorm): Qwen3_5RMSNorm((1024,), eps=1e-06)
[36m(WorkerDict pid=851211)[0m         (post_attention_layernorm): Qwen3_5RMSNorm((1024,), eps=1e-06)
[36m(WorkerDict pid=851211)[0m       )
[36m(WorkerDict pid=851211)[0m       (23): Qwen3_5DecoderLayer(
[36m(WorkerDict pid=851211)[0m         (self_attn): Qwen3_5Attention(
[36m(WorkerDict pid=851211)[0m           (q_proj): Linear(in_features=1024, out_features=4096, bias=False)
[36m(WorkerDict pid=851211)[0m           (k_proj): Linear(in_features=1024, out_features=512, bias=False)
[36m(WorkerDict pid=851211)[0m           (v_proj): Linear(in_features=1024, out_features=512, bias=False)
[36m(WorkerDict pid=851211)[0m           (o_proj): Linear(in_features=2048, out_features=1024, bias=False)
[36m(WorkerDict pid=851211)[0m           (q_norm): Qwen3_5RMSNorm((256,), eps=1e-06)
[36m(WorkerDict pid=851211)[0m           (k_norm): Qwen3_5RMSNorm((256,), eps=1e-06)
[36m(WorkerDict pid=851211)[0m         )
[36m(WorkerDict pid=851211)[0m         (mlp): Qwen3_5MLP(
[36m(WorkerDict pid=851211)[0m           (gate_proj): Linear(in_features=1024, out_features=3584, bias=False)
[36m(WorkerDict pid=851211)[0m           (up_proj): Linear(in_features=1024, out_features=3584, bias=False)
[36m(WorkerDict pid=851211)[0m           (down_proj): Linear(in_features=3584, out_features=1024, bias=False)
[36m(WorkerDict pid=851211)[0m           (act_fn): SiLUActivation()
[36m(WorkerDict pid=851211)[0m         )
[36m(WorkerDict pid=851211)[0m         (input_layernorm): Qwen3_5RMSNorm((1024,), eps=1e-06)
[36m(WorkerDict pid=851211)[0m         (post_attention_layernorm): Qwen3_5RMSNorm((1024,), eps=1e-06)
[36m(WorkerDict pid=851211)[0m       )
[36m(WorkerDict pid=851211)[0m     )
[36m(WorkerDict pid=851211)[0m     (norm): Qwen3_5RMSNorm((1024,), eps=1e-06)
[36m(WorkerDict pid=851211)[0m     (rotary_emb): Qwen3_5TextRotaryEmbedding()
[36m(WorkerDict pid=851211)[0m   )
[36m(WorkerDict pid=851211)[0m   (lm_head): Linear(in_features=1024, out_features=248320, bias=False)
[36m(WorkerDict pid=851211)[0m )
[36m(WorkerDict pid=851211)[0m layer_class : Qwen3_5DecoderLayer
[36m(WorkerDict pid=851211)[0m transformer_cls:  <class 'transformers.models.qwen3_5.modeling_qwen3_5.Qwen3_5DecoderLayer'>
[36m(WorkerDict pid=851211)[0m ============================
[36m(WorkerDict pid=851211)[0m ============================
[36m(WorkerDict pid=851211)[0m module:  Qwen3_5ForCausalLM(
[36m(WorkerDict pid=851211)[0m   (model): Qwen3_5TextModel(
[36m(WorkerDict pid=851211)[0m     (embed_tokens): Embedding(248320, 1024, padding_idx=248044)
[36m(WorkerDict pid=851211)[0m     (layers): ModuleList(
[36m(WorkerDict pid=851211)[0m       (0-2): 3 x Qwen3_5DecoderLayer(
[36m(WorkerDict pid=851211)[0m         (linear_attn): Qwen3_5GatedDeltaNet(
[36m(WorkerDict pid=851211)[0m           (act): SiLUActivation()
[36m(WorkerDict pid=851211)[0m           (conv1d): Conv1d(6144, 6144, kernel_size=(4,), stride=(1,), padding=(3,), groups=6144, bias=False)
[36m(WorkerDict pid=851211)[0m           (norm): Qwen3_5RMSNormGated()
[36m(WorkerDict pid=851211)[0m           (out_proj): Linear(in_features=2048, out_features=1024, bias=False)
[36m(WorkerDict pid=851211)[0m           (in_proj_qkv): Linear(in_features=1024, out_features=6144, bias=False)
[36m(WorkerDict pid=851211)[0m           (in_proj_z): Linear(in_features=1024, out_features=2048, bias=False)
[36m(WorkerDict pid=851211)[0m           (in_proj_b): Linear(in_features=1024, out_features=16, bias=False)
[36m(WorkerDict pid=851211)[0m           (in_proj_a): Linear(in_features=1024, out_features=16, bias=False)
[36m(WorkerDict pid=851211)[0m         )
[36m(WorkerDict pid=851211)[0m         (mlp): Qwen3_5MLP(
[36m(WorkerDict pid=851211)[0m           (gate_proj): Linear(in_features=1024, out_features=3584, bias=False)
[36m(WorkerDict pid=851211)[0m           (up_proj): Linear(in_features=1024, out_features=3584, bias=False)
[36m(WorkerDict pid=851211)[0m           (down_proj): Linear(in_features=3584, out_features=1024, bias=False)
[36m(WorkerDict pid=851211)[0m           (act_fn): SiLUActivation()
[36m(WorkerDict pid=851211)[0m         )
[36m(WorkerDict pid=851211)[0m         (input_layernorm): Qwen3_5RMSNorm((1024,), eps=1e-06)
[36m(WorkerDict pid=851211)[0m         (post_attention_layernorm): Qwen3_5RMSNorm((1024,), eps=1e-06)
[36m(WorkerDict pid=851211)[0m       )
[36m(WorkerDict pid=851211)[0m       (3): Qwen3_5DecoderLayer(
[36m(WorkerDict pid=851211)[0m         (self_attn): Qwen3_5Attention(
[36m(WorkerDict pid=851211)[0m           (q_proj): Linear(in_features=1024, out_features=4096, bias=False)
[36m(WorkerDict pid=851211)[0m           (k_proj): Linear(in_features=1024, out_features=512, bias=False)
[36m(WorkerDict pid=851211)[0m           (v_proj): Linear(in_features=1024, out_features=512, bias=False)
[36m(WorkerDict pid=851211)[0m           (o_proj): Linear(in_features=2048, out_features=1024, bias=False)
[36m(WorkerDict pid=851211)[0m           (q_norm): Qwen3_5RMSNorm((256,), eps=1e-06)
[36m(WorkerDict pid=851211)[0m           (k_norm): Qwen3_5RMSNorm((256,), eps=1e-06)
[36m(WorkerDict pid=851211)[0m         )
[36m(WorkerDict pid=851211)[0m         (mlp): Qwen3_5MLP(
[36m(WorkerDict pid=851211)[0m           (gate_proj): Linear(in_features=1024, out_features=3584, bias=False)
[36m(WorkerDict pid=851211)[0m           (up_proj): Linear(in_features=1024, out_features=3584, bias=False)
[36m(WorkerDict pid=851211)[0m           (down_proj): Linear(in_features=3584, out_features=1024, bias=False)
[36m(WorkerDict pid=851211)[0m           (act_fn): SiLUActivation()
[36m(WorkerDict pid=851211)[0m         )
[36m(WorkerDict pid=851211)[0m         (input_layernorm): Qwen3_5RMSNorm((1024,), eps=1e-06)
[36m(WorkerDict pid=851211)[0m         (post_attention_layernorm): Qwen3_5RMSNorm((1024,), eps=1e-06)
[36m(WorkerDict pid=851211)[0m       )
[36m(WorkerDict pid=851211)[0m       (4-6): 3 x Qwen3_5DecoderLayer(
[36m(WorkerDict pid=851211)[0m         (linear_attn): Qwen3_5GatedDeltaNet(
[36m(WorkerDict pid=851211)[0m           (act): SiLUActivation()
[36m(WorkerDict pid=851211)[0m           (conv1d): Conv1d(6144, 6144, kernel_size=(4,), stride=(1,), padding=(3,), groups=6144, bias=False)
[36m(WorkerDict pid=851211)[0m           (norm): Qwen3_5RMSNormGated()
[36m(WorkerDict pid=851211)[0m           (out_proj): Linear(in_features=2048, out_features=1024, bias=False)
[36m(WorkerDict pid=851211)[0m           (in_proj_qkv): Linear(in_features=1024, out_features=6144, bias=False)
[36m(WorkerDict pid=851211)[0m           (in_proj_z): Linear(in_features=1024, out_features=2048, bias=False)
[36m(WorkerDict pid=851211)[0m           (in_proj_b): Linear(in_features=1024, out_features=16, bias=False)
[36m(WorkerDict pid=851211)[0m           (in_proj_a): Linear(in_features=1024, out_features=16, bias=False)
[36m(WorkerDict pid=851211)[0m         )
[36m(WorkerDict pid=851211)[0m         (mlp): Qwen3_5MLP(
[36m(WorkerDict pid=851211)[0m           (gate_proj): Linear(in_features=1024, out_features=3584, bias=False)
[36m(WorkerDict pid=851211)[0m           (up_proj): Linear(in_features=1024, out_features=3584, bias=False)
[36m(WorkerDict pid=851211)[0m           (down_proj): Linear(in_features=3584, out_features=1024, bias=False)
[36m(WorkerDict pid=851211)[0m           (act_fn): SiLUActivation()
[36m(WorkerDict pid=851211)[0m         )
[36m(WorkerDict pid=851211)[0m         (input_layernorm): Qwen3_5RMSNorm((1024,), eps=1e-06)
[36m(WorkerDict pid=851211)[0m         (post_attention_layernorm): Qwen3_5RMSNorm((1024,), eps=1e-06)
[36m(WorkerDict pid=851211)[0m       )
[36m(WorkerDict pid=851211)[0m       (7): Qwen3_5DecoderLayer(
[36m(WorkerDict pid=851211)[0m         (self_attn): Qwen3_5Attention(
[36m(WorkerDict pid=851211)[0m           (q_proj): Linear(in_features=1024, out_features=4096, bias=False)
[36m(WorkerDict pid=851211)[0m           (k_proj): Linear(in_features=1024, out_features=512, bias=False)
[36m(WorkerDict pid=851211)[0m           (v_proj): Linear(in_features=1024, out_features=512, bias=False)
[36m(WorkerDict pid=851211)[0m           (o_proj): Linear(in_features=2048, out_features=1024, bias=False)
[36m(WorkerDict pid=851211)[0m           (q_norm): Qwen3_5RMSNorm((256,), eps=1e-06)
[36m(WorkerDict pid=851211)[0m           (k_norm): Qwen3_5RMSNorm((256,), eps=1e-06)
[36m(WorkerDict pid=851211)[0m         )
[36m(WorkerDict pid=851211)[0m         (mlp): Qwen3_5MLP(
[36m(WorkerDict pid=851211)[0m           (gate_proj): Linear(in_features=1024, out_features=3584, bias=False)
[36m(WorkerDict pid=851211)[0m           (up_proj): Linear(in_features=1024, out_features=3584, bias=False)
[36m(WorkerDict pid=851211)[0m           (down_proj): Linear(in_features=3584, out_features=1024, bias=False)
[36m(WorkerDict pid=851211)[0m           (act_fn): SiLUActivation()
[36m(WorkerDict pid=851211)[0m         )
[36m(WorkerDict pid=851211)[0m         (input_layernorm): Qwen3_5RMSNorm((1024,), eps=1e-06)
[36m(WorkerDict pid=851211)[0m         (post_attention_layernorm): Qwen3_5RMSNorm((1024,), eps=1e-06)
[36m(WorkerDict pid=851211)[0m       )
[36m(WorkerDict pid=851211)[0m       (8-10): 3 x Qwen3_5DecoderLayer(
[36m(WorkerDict pid=851211)[0m         (linear_attn): Qwen3_5GatedDeltaNet(
[36m(WorkerDict pid=851211)[0m           (act): SiLUActivation()
[36m(WorkerDict pid=851211)[0m           (conv1d): Conv1d(6144, 6144, kernel_size=(4,), stride=(1,), padding=(3,), groups=6144, bias=False)
[36m(WorkerDict pid=851211)[0m           (norm): Qwen3_5RMSNormGated()
[36m(WorkerDict pid=851211)[0m           (out_proj): Linear(in_features=2048, out_features=1024, bias=False)
[36m(WorkerDict pid=851211)[0m           (in_proj_qkv): Linear(in_features=1024, out_features=6144, bias=False)
[36m(WorkerDict pid=851211)[0m           (in_proj_z): Linear(in_features=1024, out_features=2048, bias=False)
[36m(WorkerDict pid=851211)[0m           (in_proj_b): Linear(in_features=1024, out_features=16, bias=False)
[36m(WorkerDict pid=851211)[0m           (in_proj_a): Linear(in_features=1024, out_features=16, bias=False)
[36m(WorkerDict pid=851211)[0m         )
[36m(WorkerDict pid=851211)[0m         (mlp): Qwen3_5MLP(
[36m(WorkerDict pid=851211)[0m           (gate_proj): Linear(in_features=1024, out_features=3584, bias=False)
[36m(WorkerDict pid=851211)[0m           (up_proj): Linear(in_features=1024, out_features=3584, bias=False)
[36m(WorkerDict pid=851211)[0m           (down_proj): Linear(in_features=3584, out_features=1024, bias=False)
[36m(WorkerDict pid=851211)[0m           (act_fn): SiLUActivation()
[36m(WorkerDict pid=851211)[0m         )
[36m(WorkerDict pid=851211)[0m         (input_layernorm): Qwen3_5RMSNorm((1024,), eps=1e-06)
[36m(WorkerDict pid=851211)[0m         (post_attention_layernorm): Qwen3_5RMSNorm((1024,), eps=1e-06)
[36m(WorkerDict pid=851211)[0m       )
[36m(WorkerDict pid=851211)[0m       (11): Qwen3_5DecoderLayer(
[36m(WorkerDict pid=851211)[0m         (self_attn): Qwen3_5Attention(
[36m(WorkerDict pid=851211)[0m           (q_proj): Linear(in_features=1024, out_features=4096, bias=False)
[36m(WorkerDict pid=851211)[0m           (k_proj): Linear(in_features=1024, out_features=512, bias=False)
[36m(WorkerDict pid=851211)[0m           (v_proj): Linear(in_features=1024, out_features=512, bias=False)
[36m(WorkerDict pid=851211)[0m           (o_proj): Linear(in_features=2048, out_features=1024, bias=False)
[36m(WorkerDict pid=851211)[0m           (q_norm): Qwen3_5RMSNorm((256,), eps=1e-06)
[36m(WorkerDict pid=851211)[0m           (k_norm): Qwen3_5RMSNorm((256,), eps=1e-06)
[36m(WorkerDict pid=851211)[0m         )
[36m(WorkerDict pid=851211)[0m         (mlp): Qwen3_5MLP(
[36m(WorkerDict pid=851211)[0m           (gate_proj): Linear(in_features=1024, out_features=3584, bias=False)
[36m(WorkerDict pid=851211)[0m           (up_proj): Linear(in_features=1024, out_features=3584, bias=False)
[36m(WorkerDict pid=851211)[0m           (down_proj): Linear(in_features=3584, out_features=1024, bias=False)
[36m(WorkerDict pid=851211)[0m           (act_fn): SiLUActivation()
[36m(WorkerDict pid=851211)[0m         )
[36m(WorkerDict pid=851211)[0m         (input_layernorm): Qwen3_5RMSNorm((1024,), eps=1e-06)
[36m(WorkerDict pid=851211)[0m         (post_attention_layernorm): Qwen3_5RMSNorm((1024,), eps=1e-06)
[36m(WorkerDict pid=851211)[0m       )
[36m(WorkerDict pid=851211)[0m       (12-14): 3 x Qwen3_5DecoderLayer(
[36m(WorkerDict pid=851211)[0m         (linear_attn): Qwen3_5GatedDeltaNet(
[36m(WorkerDict pid=851211)[0m           (act): SiLUActivation()
[36m(WorkerDict pid=851211)[0m           (conv1d): Conv1d(6144, 6144, kernel_size=(4,), stride=(1,), padding=(3,), groups=6144, bias=False)
[36m(WorkerDict pid=851211)[0m           (norm): Qwen3_5RMSNormGated()
[36m(WorkerDict pid=851211)[0m           (out_proj): Linear(in_features=2048, out_features=1024, bias=False)
[36m(WorkerDict pid=851211)[0m           (in_proj_qkv): Linear(in_features=1024, out_features=6144, bias=False)
[36m(WorkerDict pid=851211)[0m           (in_proj_z): Linear(in_features=1024, out_features=2048, bias=False)
[36m(WorkerDict pid=851211)[0m           (in_proj_b): Linear(in_features=1024, out_features=16, bias=False)
[36m(WorkerDict pid=851211)[0m           (in_proj_a): Linear(in_features=1024, out_features=16, bias=False)
[36m(WorkerDict pid=851211)[0m         )
[36m(WorkerDict pid=851211)[0m         (mlp): Qwen3_5MLP(
[36m(WorkerDict pid=851211)[0m           (gate_proj): Linear(in_features=1024, out_features=3584, bias=False)
[36m(WorkerDict pid=851211)[0m           (up_proj): Linear(in_features=1024, out_features=3584, bias=False)
[36m(WorkerDict pid=851211)[0m           (down_proj): Linear(in_features=3584, out_features=1024, bias=False)
[36m(WorkerDict pid=851211)[0m           (act_fn): SiLUActivation()
[36m(WorkerDict pid=851211)[0m         )
[36m(WorkerDict pid=851211)[0m         (input_layernorm): Qwen3_5RMSNorm((1024,), eps=1e-06)
[36m(WorkerDict pid=851211)[0m         (post_attention_layernorm): Qwen3_5RMSNorm((1024,), eps=1e-06)
[36m(WorkerDict pid=851211)[0m       )
[36m(WorkerDict pid=851211)[0m       (15): Qwen3_5DecoderLayer(
[36m(WorkerDict pid=851211)[0m         (self_attn): Qwen3_5Attention(
[36m(WorkerDict pid=851211)[0m           (q_proj): Linear(in_features=1024, out_features=4096, bias=False)
[36m(WorkerDict pid=851211)[0m           (k_proj): Linear(in_features=1024, out_features=512, bias=False)
[36m(WorkerDict pid=851211)[0m           (v_proj): Linear(in_features=1024, out_features=512, bias=False)
[36m(WorkerDict pid=851211)[0m           (o_proj): Linear(in_features=2048, out_features=1024, bias=False)
[36m(WorkerDict pid=851211)[0m           (q_norm): Qwen3_5RMSNorm((256,), eps=1e-06)
[36m(WorkerDict pid=851211)[0m           (k_norm): Qwen3_5RMSNorm((256,), eps=1e-06)
[36m(WorkerDict pid=851211)[0m         )
[36m(WorkerDict pid=851211)[0m         (mlp): Qwen3_5MLP(
[36m(WorkerDict pid=851211)[0m           (gate_proj): Linear(in_features=1024, out_features=3584, bias=False)
[36m(WorkerDict pid=851211)[0m           (up_proj): Linear(in_features=1024, out_features=3584, bias=False)
[36m(WorkerDict pid=851211)[0m           (down_proj): Linear(in_features=3584, out_features=1024, bias=False)
[36m(WorkerDict pid=851211)[0m           (act_fn): SiLUActivation()
[36m(WorkerDict pid=851211)[0m         )
[36m(WorkerDict pid=851211)[0m         (input_layernorm): Qwen3_5RMSNorm((1024,), eps=1e-06)
[36m(WorkerDict pid=851211)[0m         (post_attention_layernorm): Qwen3_5RMSNorm((1024,), eps=1e-06)
[36m(WorkerDict pid=851211)[0m       )
[36m(WorkerDict pid=851211)[0m       (16-18): 3 x Qwen3_5DecoderLayer(
[36m(WorkerDict pid=851211)[0m         (linear_attn): Qwen3_5GatedDeltaNet(
[36m(WorkerDict pid=851211)[0m           (act): SiLUActivation()
[36m(WorkerDict pid=851211)[0m           (conv1d): Conv1d(6144, 6144, kernel_size=(4,), stride=(1,), padding=(3,), groups=6144, bias=False)
[36m(WorkerDict pid=851211)[0m           (norm): Qwen3_5RMSNormGated()
[36m(WorkerDict pid=851211)[0m           (out_proj): Linear(in_features=2048, out_features=1024, bias=False)
[36m(WorkerDict pid=851211)[0m           (in_proj_qkv): Linear(in_features=1024, out_features=6144, bias=False)
[36m(WorkerDict pid=851211)[0m           (in_proj_z): Linear(in_features=1024, out_features=2048, bias=False)
[36m(WorkerDict pid=851211)[0m           (in_proj_b): Linear(in_features=1024, out_features=16, bias=False)
[36m(WorkerDict pid=851211)[0m           (in_proj_a): Linear(in_features=1024, out_features=16, bias=False)
[36m(WorkerDict pid=851211)[0m         )
[36m(WorkerDict pid=851211)[0m         (mlp): Qwen3_5MLP(
[36m(WorkerDict pid=851211)[0m           (gate_proj): Linear(in_features=1024, out_features=3584, bias=False)
[36m(WorkerDict pid=851211)[0m           (up_proj): Linear(in_features=1024, out_features=3584, bias=False)
[36m(WorkerDict pid=851211)[0m           (down_proj): Linear(in_features=3584, out_features=1024, bias=False)
[36m(WorkerDict pid=851211)[0m           (act_fn): SiLUActivation()
[36m(WorkerDict pid=851211)[0m         )
[36m(WorkerDict pid=851211)[0m         (input_layernorm): Qwen3_5RMSNorm((1024,), eps=1e-06)
[36m(WorkerDict pid=851211)[0m         (post_attention_layernorm): Qwen3_5RMSNorm((1024,), eps=1e-06)
[36m(WorkerDict pid=851211)[0m       )
[36m(WorkerDict pid=851211)[0m       (19): Qwen3_5DecoderLayer(
[36m(WorkerDict pid=851211)[0m         (self_attn): Qwen3_5Attention(
[36m(WorkerDict pid=851211)[0m           (q_proj): Linear(in_features=1024, out_features=4096, bias=False)
[36m(WorkerDict pid=851211)[0m           (k_proj): Linear(in_features=1024, out_features=512, bias=False)
[36m(WorkerDict pid=851211)[0m           (v_proj): Linear(in_features=1024, out_features=512, bias=False)
[36m(WorkerDict pid=851211)[0m           (o_proj): Linear(in_features=2048, out_features=1024, bias=False)
[36m(WorkerDict pid=851211)[0m           (q_norm): Qwen3_5RMSNorm((256,), eps=1e-06)
[36m(WorkerDict pid=851211)[0m           (k_norm): Qwen3_5RMSNorm((256,), eps=1e-06)
[36m(WorkerDict pid=851211)[0m         )
[36m(WorkerDict pid=851211)[0m         (mlp): Qwen3_5MLP(
[36m(WorkerDict pid=851211)[0m           (gate_proj): Linear(in_features=1024, out_features=3584, bias=False)
[36m(WorkerDict pid=851211)[0m           (up_proj): Linear(in_features=1024, out_features=3584, bias=False)
[36m(WorkerDict pid=851211)[0m           (down_proj): Linear(in_features=3584, out_features=1024, bias=False)
[36m(WorkerDict pid=851211)[0m           (act_fn): SiLUActivation()
[36m(WorkerDict pid=851211)[0m         )
[36m(WorkerDict pid=851211)[0m         (input_layernorm): Qwen3_5RMSNorm((1024,), eps=1e-06)
[36m(WorkerDict pid=851211)[0m         (post_attention_layernorm): Qwen3_5RMSNorm((1024,), eps=1e-06)
[36m(WorkerDict pid=851211)[0m       )
[36m(WorkerDict pid=851211)[0m       (20-22): 3 x Qwen3_5DecoderLayer(
[36m(WorkerDict pid=851211)[0m         (linear_attn): Qwen3_5GatedDeltaNet(
[36m(WorkerDict pid=851211)[0m           (act): SiLUActivation()
[36m(WorkerDict pid=851211)[0m           (conv1d): Conv1d(6144, 6144, kernel_size=(4,), stride=(1,), padding=(3,), groups=6144, bias=False)
[36m(WorkerDict pid=851211)[0m           (norm): Qwen3_5RMSNormGated()
[36m(WorkerDict pid=851211)[0m           (out_proj): Linear(in_features=2048, out_features=1024, bias=False)
[36m(WorkerDict pid=851211)[0m           (in_proj_qkv): Linear(in_features=1024, out_features=6144, bias=False)
[36m(WorkerDict pid=851211)[0m           (in_proj_z): Linear(in_features=1024, out_features=2048, bias=False)
[36m(WorkerDict pid=851211)[0m           (in_proj_b): Linear(in_features=1024, out_features=16, bias=False)
[36m(WorkerDict pid=851211)[0m           (in_proj_a): Linear(in_features=1024, out_features=16, bias=False)
[36m(WorkerDict pid=851211)[0m         )
[36m(WorkerDict pid=851211)[0m         (mlp): Qwen3_5MLP(
[36m(WorkerDict pid=851211)[0m           (gate_proj): Linear(in_features=1024, out_features=3584, bias=False)
[36m(WorkerDict pid=851211)[0m           (up_proj): Linear(in_features=1024, out_features=3584, bias=False)
[36m(WorkerDict pid=851211)[0m           (down_proj): Linear(in_features=3584, out_features=1024, bias=False)
[36m(WorkerDict pid=851211)[0m           (act_fn): SiLUActivation()
[36m(WorkerDict pid=851211)[0m         )
[36m(WorkerDict pid=851211)[0m         (input_layernorm): Qwen3_5RMSNorm((1024,), eps=1e-06)
[36m(WorkerDict pid=851211)[0m         (post_attention_layernorm): Qwen3_5RMSNorm((1024,), eps=1e-06)
[36m(WorkerDict pid=851211)[0m       )
[36m(WorkerDict pid=851211)[0m       (23): Qwen3_5DecoderLayer(
[36m(WorkerDict pid=851211)[0m         (self_attn): Qwen3_5Attention(
[36m(WorkerDict pid=851211)[0m           (q_proj): Linear(in_features=1024, out_features=4096, bias=False)
[36m(WorkerDict pid=851211)[0m           (k_proj): Linear(in_features=1024, out_features=512, bias=False)
[36m(WorkerDict pid=851211)[0m           (v_proj): Linear(in_features=1024, out_features=512, bias=False)
[36m(WorkerDict pid=851211)[0m           (o_proj): Linear(in_features=2048, out_features=1024, bias=False)
[36m(WorkerDict pid=851211)[0m           (q_norm): Qwen3_5RMSNorm((256,), eps=1e-06)
[36m(WorkerDict pid=851211)[0m           (k_norm): Qwen3_5RMSNorm((256,), eps=1e-06)
[36m(WorkerDict pid=851211)[0m         )
[36m(WorkerDict pid=851211)[0m         (mlp): Qwen3_5MLP(
[36m(WorkerDict pid=851211)[0m           (gate_proj): Linear(in_features=1024, out_features=3584, bias=False)
[36m(WorkerDict pid=851211)[0m           (up_proj): Linear(in_features=1024, out_features=3584, bias=False)
[36m(WorkerDict pid=851211)[0m           (down_proj): Linear(in_features=3584, out_features=1024, bias=False)
[36m(WorkerDict pid=851211)[0m           (act_fn): SiLUActivation()
[36m(WorkerDict pid=851211)[0m         )
[36m(WorkerDict pid=851211)[0m         (input_layernorm): Qwen3_5RMSNorm((1024,), eps=1e-06)
[36m(WorkerDict pid=851211)[0m         (post_attention_layernorm): Qwen3_5RMSNorm((1024,), eps=1e-06)
[36m(WorkerDict pid=851211)[0m       )
[36m(WorkerDict pid=851211)[0m     )
[36m(WorkerDict pid=851211)[0m     (norm): Qwen3_5RMSNorm((1024,), eps=1e-06)
[36m(WorkerDict pid=851211)[0m     (rotary_emb): Qwen3_5TextRotaryEmbedding()
[36m(WorkerDict pid=851211)[0m   )
[36m(WorkerDict pid=851211)[0m   (lm_head): Linear(in_features=1024, out_features=248320, bias=False)
[36m(WorkerDict pid=851211)[0m )
[36m(WorkerDict pid=851211)[0m layer_class : Qwen3_5VisionBlock
[36m(WorkerDict pid=851211)[0m transformer_cls:  None
[36m(WorkerDict pid=851211)[0m ============================
[36m(WorkerDict pid=851211)[0m NCCL version 2.27.5+cuda12.9
[36m(WorkerDict pid=851211)[0m /teamspace/studios/this_studio/verl/.venv/lib/python3.12/site-packages/torch/distributed/fsdp/fully_sharded_data_parallel.py:479: UserWarning: FSDP is switching to use `NO_SHARD` instead of ShardingStrategy.FULL_SHARD since the world size is 1.
…
